Model: "model"
_________________________________________________________________
 Layer (type)                Output Shape              Param #   
=================================================================
 conv2d_input (InputLayer)   [(None, 256, 256, 3)]     0         
                                                                 
 conv2d (Conv2D)             (None, 256, 256, 32)      896       
                                                                 
 batch_normalization (Batch  (None, 256, 256, 32)      128       
 Normalization)                                                  
                                                                 
 conv2d_1 (Conv2D)           (None, 256, 256, 32)      9248      
                                                                 
 batch_normalization_1 (Bat  (None, 256, 256, 32)      128       
 chNormalization)                                                
                                                                 
 max_pooling2d (MaxPooling2  (None, 128, 128, 32)      0         
 D)                                                              
                                                                 
 conv2d_2 (Conv2D)           (None, 128, 128, 64)      18496     
                                                                 
 batch_normalization_2 (Bat  (None, 128, 128, 64)      256       
 chNormalization)                                                
                                                                 
 conv2d_3 (Conv2D)           (None, 128, 128, 64)      36928     
                                                                 
 batch_normalization_3 (Bat  (None, 128, 128, 64)      256       
 chNormalization)                                                
                                                                 
 max_pooling2d_1 (MaxPoolin  (None, 64, 64, 64)        0         
 g2D)                                                            
                                                                 
 flatten (Flatten)           (None, 262144)            0         
                                                                 
 dense (Dense)               (None, 128)               33554560  
                                                                 
 dense_1 (Dense)             (None, 2)                 258       
                                                                 
=================================================================
Total params: 33621154 (128.25 MB)
Trainable params: 33620770 (128.25 MB)
Non-trainable params: 384 (1.50 KB)
_________________________________________________________________
None


Model: "model"
_________________________________________________________________
 Layer (type)                Output Shape              Param #   
=================================================================
 conv2d_input (InputLayer)   [(None, 256, 256, 3)]     0         
                                                                 
 conv2d (Conv2D)             (None, 256, 256, 32)      896       
                                                                 
 batch_normalization (Batch  (None, 256, 256, 32)      128       
 Normalization)                                                  
                                                                 
 conv2d_1 (Conv2D)           (None, 256, 256, 32)      9248      
                                                                 
 batch_normalization_1 (Bat  (None, 256, 256, 32)      128       
 chNormalization)                                                
                                                                 
 max_pooling2d (MaxPooling2  (None, 128, 128, 32)      0         
 D)                                                              
                                                                 
 conv2d_2 (Conv2D)           (None, 128, 128, 64)      18496     
                                                                 
 batch_normalization_2 (Bat  (None, 128, 128, 64)      256       
 chNormalization)                                                
                                                                 
 conv2d_3 (Conv2D)           (None, 128, 128, 64)      36928     
                                                                 
 batch_normalization_3 (Bat  (None, 128, 128, 64)      256       
 chNormalization)                                                
                                                                 
 max_pooling2d_1 (MaxPoolin  (None, 64, 64, 64)        0         
 g2D)                                                            
                                                                 
 flatten (Flatten)           (None, 262144)            0         
                                                                 
 dense (Dense)               (None, 128)               33554560  
                                                                 
 dense_1 (Dense)             (None, 2)                 258       
                                                                 
=================================================================
Total params: 33621154 (128.25 MB)
Trainable params: 33620770 (128.25 MB)
Non-trainable params: 384 (1.50 KB)
_________________________________________________________________
None


history = cnn_model.fit(x_train, y_train_one_hot, epochs=50, validation_data = (x_test, y_test_one_hot))
…
